…
alse, task=detect, time=None, tracker=botsort.yaml, translate=0.5298382432163746, val=True, verbose=True, vid_stride=1, visualize=False, warmup_bias_lr=0.1, warmup_epochs=1.9237920462489981, warmup_momentum=0.6061748903196028, weight_decay=0.0005955323012947237, workers=8, workspace=None
[36m(_tune pid=20329)[0m Overriding model.yaml nc=80 with nc=2
[36m(_tune pid=20329)[0m 
[36m(_tune pid=20329)[0m                    from  n    params  module                                       arguments                     
[36m(_tune pid=20329)[0m   0                  -1  1       928  ultralytics.nn.modules.conv.Conv             [3, 32, 3, 2]                 
[36m(_tune pid=20329)[0m   1                  -1  1     18560  ultralytics.nn.modules.conv.Conv             [32, 64, 3, 2]                
[36m(_tune pid=20329)[0m   2                  -1  1     26080  ultralytics.nn.modules.block.C3k2            [64, 128, 1, False, 0.25]     
[36m(_tune pid=20329)[0m   3                  -1  1    147712  ultralytics.nn.modules.conv.Conv             [128, 128, 3, 2]              
[36m(_tune pid=20329)[0m   4                  -1  1    103360  ultralytics.nn.modules.block.C3k2            [128, 256, 1, False, 0.25]    
[36m(_tune pid=20329)[0m   5                  -1  1    590336  ultralytics.nn.modules.conv.Conv             [256, 256, 3, 2]              
[36m(_tune pid=20329)[0m   6                  -1  1    346112  ultralytics.nn.modules.block.C3k2            [256, 256, 1, True]           
[36m(_tune pid=20329)[0m   7                  -1  1   1180672  ultralytics.nn.modules.conv.Conv             [256, 512, 3, 2]              
[36m(_tune pid=20329)[0m   8                  -1  1   1380352  ultralytics.nn.modules.block.C3k2            [512, 512, 1, True]           
[36m(_tune pid=20329)[0m   9                  -1  1    656896  ultralytics.nn.modules.block.SPPF            [512, 512, 5]                 
[36m(_tune pid=20329)[0m  10                  -1  1    990976  ultralytics.nn.modules.block.C2PSA           [512, 512, 1]                 
[36m(_tune pid=20329)[0m  11                  -1  1         0  torch.nn.modules.upsampling.Upsample         [None, 2, 'nearest']          
[36m(_tune pid=20329)[0m  12             [-1, 6]  1         0  ultralytics.nn.modules.conv.Concat           [1]                           
[36m(_tune pid=20329)[0m  13                  -1  1    443776  ultralytics.nn.modules.block.C3k2            [768, 256, 1, False]          
[36m(_tune pid=20329)[0m  14                  -1  1         0  torch.nn.modules.upsampling.Upsample         [None, 2, 'nearest']          
[36m(_tune pid=20329)[0m  15             [-1, 4]  1         0  ultralytics.nn.modules.conv.Concat           [1]                           
[36m(_tune pid=20329)[0m  16                  -1  1    127680  ultralytics.nn.modules.block.C3k2            [512, 128, 1, False]          
[36m(_tune pid=20329)[0m  17                  -1  1    147712  ultralytics.nn.modules.conv.Conv             [128, 128, 3, 2]              
[36m(_tune pid=20329)[0m  18            [-1, 13]  1         0  ultralytics.nn.modules.conv.Concat           [1]                           
[36m(_tune pid=20329)[0m  19                  -1  1    345472  ultralytics.nn.modules.block.C3k2            [384, 256, 1, False]          
[36m(_tune pid=20329)[0m  20                  -1  1    590336  ultralytics.nn.modules.conv.Conv             [256, 256, 3, 2]              
[36m(_tune pid=20329)[0m  21            [-1, 10]  1         0  ultralytics.nn.modules.conv.Concat           [1]                           
[36m(_tune pid=20329)[0m  22                  -1  1   1511424  ultralytics.nn.modules.block.C3k2            [768, 512, 1, True]           
[36m(_tune pid=20329)[0m  23        [16, 19, 22]  1    820182  ultralytics.nn.modules.head.Detect           [2, [128, 256, 512]]          
[36m(_tune pid=20329)[0m YOLO11s summary: 181 layers, 9,428,566 parameters, 9,428,550 gradients, 21.6 GFLOPs
[36m(_tune pid=20329)[0m 
[36m(_tune pid=20329)[0m Transferred 493/499 items from pretrained weights
[36m(pid=gcs_server)[0m [2025-12-02 02:20:21,649 E 19214 19214] (gcs_server) gcs_server.cc:303: Failed to establish connection to the event+metrics exporter agent. Events and metrics will not be exported. Exporter agent status: RpcError: Running out of retries to initialize the metrics agent. rpc_code: 14
…
